…
[32m[01/21 21:10:22 UniLIP]: [0m=================================================================================================================================================================================================================================
Layer (type:depth-idx)                                                      Input Shape               Output Shape              Param #                   Param %                   Kernel Shape              Mult-Adds
=================================================================================================================================================================================================================================
DC_AE_ViT_Unified                                                           [1, 3, 224, 224]          [1, 3, 224, 224]          --                             --                   --                        --
├─InternVisionModel: 1-1                                                    --                        --                        --                             --                   --                        --
│    └─InternVisionEmbeddings: 2-1                                          [1, 3, 224, 224]          [1, 257, 1024]            1,050,624                   0.22%                   --                        --
│    │    └─Conv2d: 3-1                                                     [1, 3, 224, 224]          [1, 1024, 16, 16]         (603,136)                   0.13%                   [14, 14]                  154,402,816
│    └─InternVisionEncoder: 2-2                                             --                        --                        --                             --                   --                        --
│    │    └─ModuleList: 3-2                                                 --                        --                        --                             --                   --                        --
│    │    │    └─InternVisionEncoderLayer: 4-1                              [1, 257, 1024]            [1, 257, 1024]            2,048                       0.00%                   --                        --
│    │    │    │    └─LayerNorm: 5-1                                        [1, 257, 1024]            [1, 257, 1024]            (2,048)                     0.00%                   --                        2,048
│    │    │    │    └─InternAttention: 5-2                                  [1, 257, 1024]            [1, 257, 1024]            (4,198,400)                 0.89%                   --                        4,198,400
│    │    │    │    └─Identity: 5-3                                         [1, 257, 1024]            [1, 257, 1024]            --                             --                   --                        --
│    │    │    │    └─LayerNorm: 5-4                                        [1, 257, 1024]            [1, 257, 1024]            (2,048)                     0.00%                   --                        2,048
│    │    │    │    └─InternMLP: 5-5                                        [1, 257, 1024]            [1, 257, 1024]            (8,393,728)                 1.78%                   --                        8,393,728
│    │    │    │    └─Identity: 5-6                                         [1, 257, 1024]            [1, 257, 1024]            --                             --                   --                        --
│    │    │    └─InternVisionEncoderLayer: 4-2                              [1, 257, 1024]            [1, 257, 1024]            2,048                       0.00%                   --                        --
│    │    │    │    └─LayerNorm: 5-7                                        [1, 257, 1024]            [1, 257, 1024]            (2,048)                     0.00%                   --                        2,048
│    │    │    │    └─InternAttention: 5-8                                  [1, 257, 1024]            [1, 257, 1024]            (4,198,400)                 0.89%                   --                        4,198,400
│    │    │    │    └─DropPath: 5-9                                         [1, 257, 1024]            [1, 257, 1024]            --                             --                   --                        --
│    │    │    │    └─LayerNorm: 5-10                                       [1, 257, 1024]            [1, 257, 1024]            (2,048)                     0.00%                   --                        2,048
│    │    │    │    └─InternMLP: 5-11                                       [1, 257, 1024]            [1, 257, 1024]            (8,393,728)                 1.78%                   --                        8,393,728
│    │    │    │    └─DropPath: 5-12                                        [1, 257, 1024]            [1, 257, 1024]            --                             --                   --                        --
│    │    │    └─InternVisionEncoderLayer: 4-3                              [1, 257, 1024]            [1, 257, 1024]            2,048                       0.00%                   --                        --
│    │    │    │    └─LayerNorm: 5-13                                       [1, 257, 1024]            [1, 257, 1024]            (2,048)                     0.00%                   --                        2,048
│    │    │    │    └─InternAttention: 5-14                                 [1, 257, 1024]            [1, 257, 1024]            (4,198,400)                 0.89%                   --                        4,198,400
│    │    │    │    └─DropPath: 5-15                                        [1, 257, 1024]            [1, 257, 1024]            --                             --                   --                        --
│    │    │    │    └─LayerNorm: 5-16                                       [1, 257, 1024]            [1, 257, 1024]            (2,048)                     0.00%                   --                        2,048
│    │    │    │    └─InternMLP: 5-17                                       [1, 257, 1024]            [1, 257, 1024]            (8,393,728)                 1.78%                   --                        8,393,728
│    │    │    │    └─DropPath: 5-18                                        [1, 257, 1024]            [1, 257, 1024]            --                             --                   --                        --
│    │    │    └─InternVisionEncoderLayer: 4-4                              [1, 257, 1024]            [1, 257, 1024]            2,048                       0.00%                   --                        --
│    │    │    │    └─LayerNorm: 5-19                                       [1, 257, 1024]            [1, 257, 1024]            (2,048)                     0.00%                   --                        2,048
│    │    │    │    └─InternAttention: 5-20                                 [1, 257, 1024]            [1, 257, 1024]            (4,198,400)                 0.89%                   --                        4,198,400
│    │    │    │    └─DropPath: 5-21                                        [1, 257, 1024]            [1, 257, 1024]            --                             --                   --                        --
│    │    │    │    └─LayerNorm: 5-22                                       [1, 257, 1024]            [1, 257, 1024]            (2,048)                     0.00%                   --                        2,048
│    │    │    │    └─InternMLP: 5-23                                       [1, 257, 1024]            [1, 257, 1024]            (8,393,728)                 1.78%                   --                        8,393,728
│    │    │    │    └─DropPath: 5-24                                        [1, 257, 1024]            [1, 257, 1024]            --                             --                   --                        --
│    │    │    └─InternVisionEncoderLayer: 4-5                              [1, 257, 1024]            [1, 257, 1024]            2,048                       0.00%                   --                        --
│    │    │    │    └─LayerNorm: 5-25                                       [1, 257, 1024]            [1, 257, 1024]            (2,048)                     0.00%                   --                        2,048
│    │    │    │    └─InternAttention: 5-26                                 [1, 257, 1024]            [1, 257, 1024]            (4,198,400)                 0.89%                   --                        4,198,400
│    │    │    │    └─DropPath: 5-27                                        [1, 257, 1024]            [1, 257, 1024]            --                             --                   --                        --
│    │    │    │    └─LayerNorm: 5-28                                       [1, 257, 1024]            [1, 257, 1024]            (2,048)                     0.00%                   --                        2,048
│    │    │    │    └─InternMLP: 5-29                                       [1, 257, 1024]            [1, 257, 1024]            (8,393,728)                 1.78%                   --                        8,393,728
│    │    │    │    └─DropPath: 5-30                                        [1, 257, 1024]            [1, 257, 1024]            --                             --                   --                        --
│    │    │    └─InternVisionEncoderLayer: 4-6                              [1, 257, 1024]            [1, 257, 1024]            2,048                       0.00%                   --                        --
│    │    │    │    └─LayerNorm: 5-31                                       [1, 257, 1024]            [1, 257, 1024]            (2,048)                     0.00%                   --                        2,048
│    │    │    │    └─InternAttention: 5-32                                 [1, 257, 1024]            [1, 257, 1024]            (4,198,400)                 0.89%                   --                        4,198,400
│    │    │    │    └─DropPath: 5-33                                        [1, 257, 1024]            [1, 257, 1024]            --                             --                   --                        --
│    │    │    │    └─LayerNorm: 5-34                                       [1, 257, 1024]            [1, 257, 1024]            (2,048)                     0.00%                   --                        2,048
│    │    │    │    └─InternMLP: 5-35                                       [1, 257, 1024]            [1, 257, 1024]            (8,393,728)                 1.78%                   --                        8,393,728
│    │    │    │    └─DropPath: 5-36                                        [1, 257, 1024]            [1, 257, 1024]            --                             --                   --                        --
│    │    │    └─InternVisionEncoderLayer: 4-7                              [1, 257, 1024]            [1, 257, 1024]            2,048                       0.00%                   --                        --
│    │    │    │    └─LayerNorm: 5-37                                       [1, 257, 1024]            [1, 257, 1024]            (2,048)                     0.00%                   --                        2,048
│    │    │    │    └─InternAttention: 5-38                                 [1, 257, 1024]            [1, 257, 1024]            (4,198,400)                 0.89%                   --                        4,198,400
│    │    │    │    └─DropPath: 5-39                                        [1, 257, 1024]            [1, 257, 1024]            --                             --                   --                        --
│    │    │    │    └─LayerNorm: 5-40                                       [1, 257, 1024]            [1, 257, 1024]            (2,048)                     0.00%                   --                        2,048
│    │    │    │    └─InternMLP: 5-41                                       [1, 257, 1024]            [1, 257, 1024]            (8,393,728)                 1.78%                   --                        8,393,728
│    │    │    │    └─DropPath: 5-42                                        [1, 257, 1024]            [1, 257, 1024]            --                             --                   --                        --
│    │    │    └─InternVisionEncoderLayer: 4-8                              [1, 257, 1024]            [1, 257, 1024]            2,048                       0.00%                   --                        --
│    │    │    │    └─LayerNorm: 5-43                                       [1, 257, 1024]            [1, 257, 1024]            (2,048)                     0.00%                   --                        2,048
│    │    │    │    └─InternAttention: 5-44                                 [1, 257, 1024]            [1, 257, 1024]            (4,198,400)                 0.89%                   --                        4,198,400
│    │    │    │    └─DropPath: 5-45                                        [1, 257, 1024]            [1, 257, 1024]            --                             --                   --                        --
│    │    │    │    └─LayerNorm: 5-46                                       [1, 257, 1024]            [1, 257, 1024]            (2,048)                     0.00%                   --                        2,048
│    │    │    │    └─InternMLP: 5-47                                       [1, 257, 1024]            [1, 257, 1024]            (8,393,728)                 1.78%                   --                        8,393,728
│    │    │    │    └─DropPath: 5-48                                        [1, 257, 1024]            [1, 257, 1024]            --                             --                   --                        --
│    │    │    └─InternVisionEncoderLayer: 4-9                              [1, 257, 1024]            [1, 257, 1024]            2,048                       0.00%                   --                        --
│    │    │    │    └─LayerNorm: 5-49                                       [1, 257, 1024]            [1, 257, 1024]            (2,048)                     0.00%                   --                        2,048
│    │    │    │    └─InternAttention: 5-50                                 [1, 257, 1024]            [1, 257, 1024]            (4,198,400)                 0.89%                   --                        4,198,400
│    │    │    │    └─DropPath: 5-51                                        [1, 257, 1024]            [1, 257, 1024]            --                             --                   --                        --
│    │    │    │    └─LayerNorm: 5-52                                       [1, 257, 1024]            [1, 257, 1024]            (2,048)                     0.00%                   --                        2,048
│    │    │    │    └─InternMLP: 5-53                                       [1, 257, 1024]            [1, 257, 1024]            (8,393,728)                 1.78%                   --                        8,393,728
│    │    │    │    └─DropPath: 5-54                                        [1, 257, 1024]            [1, 257, 1024]            --                             --                   --                        --
│    │    │    └─InternVisionEncoderLayer: 4-10                             [1, 257, 1024]            [1, 257, 1024]            2,048                       0.00%                   --                        --
│    │    │    │    └─LayerNorm: 5-55                                       [1, 257, 1024]            [1, 257, 1024]            (2,048)                     0.00%                   --                        2,048
│    │    │    │    └─InternAttention: 5-56                                 [1, 257, 1024]            [1, 257, 1024]            (4,198,400)                 0.89%                   --                        4,198,400
│    │    │    │    └─DropPath: 5-57                                        [1, 257, 1024]            [1, 257, 1024]            --                             --                   --                        --
│    │    │    │    └─LayerNorm: 5-58                                       [1, 257, 1024]            [1, 257, 1024]            (2,048)                     0.00%                   --                        2,048
│    │    │    │    └─InternMLP: 5-59                                       [1, 257, 1024]            [1, 257, 1024]            (8,393,728)                 1.78%                   --                        8,393,728
│    │    │    │    └─DropPath: 5-60                                        [1, 257, 1024]            [1, 257, 1024]            --                             --                   --                        --
│    │    │    └─InternVisionEncoderLayer: 4-11                             [1, 257, 1024]            [1, 257, 1024]            2,048                       0.00%                   --                        --
│    │    │    │    └─LayerNorm: 5-61                                       [1, 257, 1024]            [1, 257, 1024]            (2,048)                     0.00%                   --                        2,048
│    │    │    │    └─InternAttention: 5-62                                 [1, 257, 1024]            [1, 257, 1024]            (4,198,400)                 0.89%                   --                        4,198,400
│    │    │    │    └─DropPath: 5-63                                        [1, 257, 1024]            [1, 257, 1024]            --                             --                   --                        --
│    │    │    │    └─LayerNorm: 5-64                                       [1, 257, 1024]            [1, 257, 1024]            (2,048)                     0.00%                   --                        2,048
│    │    │    │    └─InternMLP: 5-65                                       [1, 257, 1024]            [1, 257, 1024]            (8,393,728)                 1.78%                   --                        8,393,728
│    │    │    │    └─DropPath: 5-66                                        [1, 257, 1024]            [1, 257, 1024]            --                             --                   --                        --
│    │    │    └─InternVisionEncoderLayer: 4-12                             [1, 257, 1024]            [1, 257, 1024]            2,048                       0.00%                   --                        --
│    │    │    │    └─LayerNorm: 5-67                                       [1, 257, 1024]            [1, 257, 1024]            (2,048)                     0.00%                   --                        2,048
│    │    │    │    └─InternAttention: 5-68                                 [1, 257, 1024]            [1, 257, 1024]            (4,198,400)                 0.89%                   --                        4,198,400
│    │    │    │    └─DropPath: 5-69                                        [1, 257, 1024]            [1, 257, 1024]            --                             --                   --                        --
│    │    │    │    └─LayerNorm: 5-70                                       [1, 257, 1024]            [1, 257, 1024]            (2,048)                     0.00%                   --                        2,048
│    │    │    │    └─InternMLP: 5-71                                       [1, 257, 1024]            [1, 257, 1024]            (8,393,728)                 1.78%                   --                        8,393,728
│    │    │    │    └─DropPath: 5-72                                        [1, 257, 1024]            [1, 257, 1024]            --                             --                   --                        --
│    │    │    └─InternVisionEncoderLayer: 4-13                             [1, 257, 1024]            [1, 257, 1024]            2,048                       0.00%                   --                        --
│    │    │    │    └─LayerNorm: 5-73                                       [1, 257, 1024]            [1, 257, 1024]            (2,048)                     0.00%                   --                        2,048
│    │    │    │    └─InternAttention: 5-74                                 [1, 257, 1024]            [1, 257, 1024]            (4,198,400)                 0.89%                   --                        4,198,400
│    │    │    │    └─DropPath: 5-75                                        [1, 257, 1024]            [1, 257, 1024]            --                             --                   --                        --
│    │    │    │    └─LayerNorm: 5-76                                       [1, 257, 1024]            [1, 257, 1024]            (2,048)                     0.00%                   --                        2,048
│    │    │    │    └─InternMLP: 5-77                                       [1, 257, 1024]            [1, 257, 1024]            (8,393,728)                 1.78%                   --                        8,393,728
│    │    │    │    └─DropPath: 5-78                                        [1, 257, 1024]            [1, 257, 1024]            --                             --                   --                        --
│    │    │    └─InternVisionEncoderLayer: 4-14                             [1, 257, 1024]            [1, 257, 1024]            2,048                       0.00%                   --                        --
│    │    │    │    └─LayerNorm: 5-79                                       [1, 257, 1024]            [1, 257, 1024]            (2,048)                     0.00%                   --                        2,048
│    │    │    │    └─InternAttention: 5-80                                 [1, 257, 1024]            [1, 257, 1024]            (4,198,400)                 0.89%                   --                        4,198,400
│    │    │    │    └─DropPath: 5-81                                        [1, 257, 1024]            [1, 257, 1024]            --                             --                   --                        --
│    │    │    │    └─LayerNorm: 5-82                                       [1, 257, 1024]            [1, 257, 1024]            (2,048)                     0.00%                   --                        2,048
│    │    │    │    └─InternMLP: 5-83                                       [1, 257, 1024]            [1, 257, 1024]            (8,393,728)                 1.78%                   --                        8,393,728
│    │    │    │    └─DropPath: 5-84                                        [1, 257, 1024]            [1, 257, 1024]            --                             --                   --                        --
│    │    │    └─InternVisionEncoderLayer: 4-15                             [1, 257, 1024]            [1, 257, 1024]            2,048                       0.00%                   --                        --
│    │    │    │    └─LayerNorm: 5-85                                       [1, 257, 1024]            [1, 257, 1024]            (2,048)                     0.00%                   --                        2,048
│    │    │    │    └─InternAttention: 5-86                                 [1, 257, 1024]            [1, 257, 1024]            (4,198,400)                 0.89%                   --                        4,198,400
│    │    │    │    └─DropPath: 5-87                                        [1, 257, 1024]            [1, 257, 1024]            --                             --                   --                        --
│    │    │    │    └─LayerNorm: 5-88                                       [1, 257, 1024]            [1, 257, 1024]            (2,048)                     0.00%                   --                        2,048
│    │    │    │    └─InternMLP: 5-89                                       [1, 257, 1024]            [1, 257, 1024]            (8,393,728)                 1.78%                   --                        8,393,728
│    │    │    │    └─DropPath: 5-90                                        [1, 257, 1024]            [1, 257, 1024]            --                             --                   --                        --
│    │    │    └─InternVisionEncoderLayer: 4-16                             [1, 257, 1024]            [1, 257, 1024]            2,048                       0.00%                   --                        --
│    │    │    │    └─LayerNorm: 5-91                                       [1, 257, 1024]            [1, 257, 1024]            (2,048)                     0.00%                   --                        2,048
│    │    │    │    └─InternAttention: 5-92                                 [1, 257, 1024]            [1, 257, 1024]            (4,198,400)                 0.89%                   --                        4,198,400
│    │    │    │    └─DropPath: 5-93                                        [1, 257, 1024]            [1, 257, 1024]            --                             --                   --                        --
│    │    │    │    └─LayerNorm: 5-94                                       [1, 257, 1024]            [1, 257, 1024]            (2,048)                     0.00%                   --                        2,048
│    │    │    │    └─InternMLP: 5-95                                       [1, 257, 1024]            [1, 257, 1024]            (8,393,728)                 1.78%                   --                        8,393,728
│    │    │    │    └─DropPath: 5-96                                        [1, 257, 1024]            [1, 257, 1024]            --                             --                   --                        --
│    │    │    └─InternVisionEncoderLayer: 4-17                             [1, 257, 1024]            [1, 257, 1024]            2,048                       0.00%                   --                        --
│    │    │    │    └─LayerNorm: 5-97                                       [1, 257, 1024]            [1, 257, 1024]            (2,048)                     0.00%                   --                        2,048
│    │    │    │    └─InternAttention: 5-98                                 [1, 257, 1024]            [1, 257, 1024]            (4,198,400)                 0.89%                   --                        4,198,400
│    │    │    │    └─DropPath: 5-99                                        [1, 257, 1024]            [1, 257, 1024]            --                             --                   --                        --
│    │    │    │    └─LayerNorm: 5-100                                      [1, 257, 1024]            [1, 257, 1024]            (2,048)                     0.00%                   --                        2,048
│    │    │    │    └─InternMLP: 5-101                                      [1, 257, 1024]            [1, 257, 1024]            (8,393,728)                 1.78%                   --                        8,393,728
│    │    │    │    └─DropPath: 5-102                                       [1, 257, 1024]            [1, 257, 1024]            --                             --                   --                        --
│    │    │    └─InternVisionEncoderLayer: 4-18                             [1, 257, 1024]            [1, 257, 1024]            2,048                       0.00%                   --                        --
│    │    │    │    └─LayerNorm: 5-103                                      [1, 257, 1024]            [1, 257, 1024]            (2,048)                     0.00%                   --                        2,048
│    │    │    │    └─InternAttention: 5-104                                [1, 257, 1024]            [1, 257, 1024]            (4,198,400)                 0.89%                   --                        4,198,400
│    │    │    │    └─DropPath: 5-105                                       [1, 257, 1024]            [1, 257, 1024]            --                             --                   --                        --
│    │    │    │    └─LayerNorm: 5-106                                      [1, 257, 1024]            [1, 257, 1024]            (2,048)                     0.00%                   --                        2,048
│    │    │    │    └─InternMLP: 5-107                                      [1, 257, 1024]            [1, 257, 1024]            (8,393,728)                 1.78%                   --                        8,393,728
│    │    │    │    └─DropPath: 5-108                                       [1, 257, 1024]            [1, 257, 1024]            --                             --                   --                        --
│    │    │    └─InternVisionEncoderLayer: 4-19                             [1, 257, 1024]            [1, 257, 1024]            2,048                       0.00%                   --                        --
│    │    │    │    └─LayerNorm: 5-109                                      [1, 257, 1024]            [1, 257, 1024]            (2,048)                     0.00%                   --                        2,048
│    │    │    │    └─InternAttention: 5-110                                [1, 257, 1024]            [1, 257, 1024]            (4,198,400)                 0.89%                   --                        4,198,400
│    │    │    │    └─DropPath: 5-111                                       [1, 257, 1024]            [1, 257, 1024]            --                             --                   --                        --
│    │    │    │    └─LayerNorm: 5-112                                      [1, 257, 1024]            [1, 257, 1024]            (2,048)                     0.00%                   --                        2,048
│    │    │    │    └─InternMLP: 5-113                                      [1, 257, 1024]            [1, 257, 1024]            (8,393,728)                 1.78%                   --                        8,393,728
│    │    │    │    └─DropPath: 5-114                                       [1, 257, 1024]            [1, 257, 1024]            --                             --                   --                        --
│    │    │    └─InternVisionEncoderLayer: 4-20                             [1, 257, 1024]            [1, 257, 1024]            2,048                       0.00%                   --                        --
│    │    │    │    └─LayerNorm: 5-115                                      [1, 257, 1024]            [1, 257, 1024]            (2,048)                     0.00%                   --                        2,048
│    │    │    │    └─InternAttention: 5-116                                [1, 257, 1024]            [1, 257, 1024]            (4,198,400)                 0.89%                   --                        4,198,400
│    │    │    │    └─DropPath: 5-117                                       [1, 257, 1024]            [1, 257, 1024]            --                             --                   --                        --
│    │    │    │    └─LayerNorm: 5-118                                      [1, 257, 1024]            [1, 257, 1024]            (2,048)                     0.00%                   --                        2,048
│    │    │    │    └─InternMLP: 5-119                                      [1, 257, 1024]            [1, 257, 1024]            (8,393,728)                 1.78%                   --                        8,393,728
│    │    │    │    └─DropPath: 5-120                                       [1, 257, 1024]            [1, 257, 1024]            --                             --                   --                        --
│    │    │    └─InternVisionEncoderLayer: 4-21                             [1, 257, 1024]            [1, 257, 1024]            2,048                       0.00%                   --                        --
│    │    │    │    └─LayerNorm: 5-121                                      [1, 257, 1024]            [1, 257, 1024]            (2,048)                     0.00%                   --                        2,048
│    │    │    │    └─InternAttention: 5-122                                [1, 257, 1024]            [1, 257, 1024]            (4,198,400)                 0.89%                   --                        4,198,400
│    │    │    │    └─DropPath: 5-123                                       [1, 257, 1024]            [1, 257, 1024]            --                             --                   --                        --
│    │    │    │    └─LayerNorm: 5-124                                      [1, 257, 1024]            [1, 257, 1024]            (2,048)                     0.00%                   --                        2,048
│    │    │    │    └─InternMLP: 5-125                                      [1, 257, 1024]            [1, 257, 1024]            (8,393,728)                 1.78%                   --                        8,393,728
│    │    │    │    └─DropPath: 5-126                                       [1, 257, 1024]            [1, 257, 1024]            --                             --                   --                        --
│    │    │    └─InternVisionEncoderLayer: 4-22                             [1, 257, 1024]            [1, 257, 1024]            2,048                       0.00%                   --                        --
│    │    │    │    └─LayerNorm: 5-127                                      [1, 257, 1024]            [1, 257, 1024]            (2,048)                     0.00%                   --                        2,048
│    │    │    │    └─InternAttention: 5-128                                [1, 257, 1024]            [1, 257, 1024]            (4,198,400)                 0.89%                   --                        4,198,400
│    │    │    │    └─DropPath: 5-129                                       [1, 257, 1024]            [1, 257, 1024]            --                             --                   --                        --
│    │    │    │    └─LayerNorm: 5-130                                      [1, 257, 1024]            [1, 257, 1024]            (2,048)                     0.00%                   --                        2,048
│    │    │    │    └─InternMLP: 5-131                                      [1, 257, 1024]            [1, 257, 1024]            (8,393,728)                 1.78%                   --                        8,393,728
│    │    │    │    └─DropPath: 5-132                                       [1, 257, 1024]            [1, 257, 1024]            --                             --                   --                        --
│    │    │    └─InternVisionEncoderLayer: 4-23                             [1, 257, 1024]            [1, 257, 1024]            2,048                       0.00%                   --                        --
│    │    │    │    └─LayerNorm: 5-133                                      [1, 257, 1024]            [1, 257, 1024]            (2,048)                     0.00%                   --                        2,048
│    │    │    │    └─InternAttention: 5-134                                [1, 257, 1024]            [1, 257, 1024]            (4,198,400)                 0.89%                   --                        4,198,400
│    │    │    │    └─DropPath: 5-135                                       [1, 257, 1024]            [1, 257, 1024]            --                             --                   --                        --
│    │    │    │    └─LayerNorm: 5-136                                      [1, 257, 1024]            [1, 257, 1024]            (2,048)                     0.00%                   --                        2,048
│    │    │    │    └─InternMLP: 5-137                                      [1, 257, 1024]            [1, 257, 1024]            (8,393,728)                 1.78%                   --                        8,393,728
│    │    │    │    └─DropPath: 5-138                                       [1, 257, 1024]            [1, 257, 1024]            --                             --                   --                        --
│    │    │    └─InternVisionEncoderLayer: 4-24                             [1, 257, 1024]            [1, 257, 1024]            2,048                       0.00%                   --                        --
│    │    │    │    └─LayerNorm: 5-139                                      [1, 257, 1024]            [1, 257, 1024]            (2,048)                     0.00%                   --                        2,048
│    │    │    │    └─InternAttention: 5-140                                [1, 257, 1024]            [1, 257, 1024]            (4,198,400)                 0.89%                   --                        4,198,400
│    │    │    │    └─DropPath: 5-141                                       [1, 257, 1024]            [1, 257, 1024]            --                             --                   --                        --
│    │    │    │    └─LayerNorm: 5-142                                      [1, 257, 1024]            [1, 257, 1024]            (2,048)                     0.00%                   --                        2,048
│    │    │    │    └─InternMLP: 5-143                                      [1, 257, 1024]            [1, 257, 1024]            (8,393,728)                 1.78%                   --                        8,393,728
│    │    │    │    └─DropPath: 5-144                                       [1, 257, 1024]            [1, 257, 1024]            --                             --                   --                        --
├─Sequential: 1-2                                                           [1, 64, 4096]             [1, 64, 896]              --                             --                   --                        --
│    └─LayerNorm: 2-3                                                       [1, 64, 4096]             [1, 64, 4096]             (8,192)                     0.00%                   --                        8,192
│    └─Linear: 2-4                                                          [1, 64, 4096]             [1, 64, 896]              (3,670,912)                 0.78%                   --                        3,670,912
│    └─GELU: 2-5                                                            [1, 64, 896]              [1, 64, 896]              --                             --                   --                        --
│    └─Linear: 2-6                                                          [1, 64, 896]              [1, 64, 896]              (803,712)                   0.17%                   --                        803,712
├─ModuleList: 1-3                                                           --                        --                        --                             --                   --                        --
│    └─ResBlock: 2-7                                                        [1, 64, 896]              [1, 64, 896]              --                             --                   --                        --
│    │    └─Sequential: 3-3                                                 [1, 64, 896]              [1, 64, 896]              --                             --                   --                        --
│    │    │    └─LayerNorm: 4-25                                            [1, 64, 896]              [1, 64, 896]              1,792                       0.00%                   --                        1,792
│    │    │    └─Linear: 4-26                                               [1, 64, 896]              [1, 64, 896]              803,712                     0.17%                   --                        803,712
│    │    │    └─GELU: 4-27                                                 [1, 64, 896]              [1, 64, 896]              --                             --                   --                        --
│    │    │    └─Linear: 4-28                                               [1, 64, 896]              [1, 64, 896]              803,712                     0.17%                   --                        803,712
│    └─ResBlock: 2-8                                                        [1, 64, 896]              [1, 64, 896]              --                             --                   --                        --
│    │    └─Sequential: 3-4                                                 [1, 64, 896]              [1, 64, 896]              --                             --                   --                        --
│    │    │    └─LayerNorm: 4-29                                            [1, 64, 896]              [1, 64, 896]              1,792                       0.00%                   --                        1,792
│    │    │    └─Linear: 4-30                                               [1, 64, 896]              [1, 64, 896]              803,712                     0.17%                   --                        803,712
│    │    │    └─GELU: 4-31                                                 [1, 64, 896]              [1, 64, 896]              --                             --                   --                        --
│    │    │    └─Linear: 4-32                                               [1, 64, 896]              [1, 64, 896]              803,712                     0.17%                   --                        803,712
│    └─ResBlock: 2-9                                                        [1, 64, 896]              [1, 64, 896]              --                             --                   --                        --
│    │    └─Sequential: 3-5                                                 [1, 64, 896]              [1, 64, 896]              --                             --                   --                        --
│    │    │    └─LayerNorm: 4-33                                            [1, 64, 896]              [1, 64, 896]              1,792                       0.00%                   --                        1,792
│    │    │    └─Linear: 4-34                                               [1, 64, 896]              [1, 64, 896]              803,712                     0.17%                   --                        803,712
│    │    │    └─GELU: 4-35                                                 [1, 64, 896]              [1, 64, 896]              --                             --                   --                        --
│    │    │    └─Linear: 4-36                                               [1, 64, 896]              [1, 64, 896]              803,712                     0.17%                   --                        803,712
├─Sequential: 1-4                                                           [1, 64, 896]              [1, 64, 32]               --                             --                   --                        --
│    └─LayerNorm: 2-10                                                      [1, 64, 896]              [1, 64, 896]              1,792                       0.00%                   --                        1,792
│    └─Linear: 2-11                                                         [1, 64, 896]              [1, 64, 32]               28,704                      0.01%                   --                        28,704
│    └─GELU: 2-12                                                           [1, 64, 32]               [1, 64, 32]               --                             --                   --                        --
│    └─Linear: 2-13                                                         [1, 64, 32]               [1, 64, 32]               1,056                       0.00%                   --                        1,056
├─Decoder: 1-5                                                              [1, 32, 8, 8]             [1, 3, 256, 256]          --                             --                   --                        --
│    └─Conv2d: 2-14                                                         [1, 32, 8, 8]             [1, 1024, 8, 8]           295,936                     0.06%                   [3, 3]                    18,939,904
│    └─ModuleList: 2-15                                                     --                        --                        --                             --                   --                        --
│    │    └─Sequential: 3-6                                                 [1, 1024, 8, 8]           [1, 1024, 8, 8]           --                             --                   --                        --
│    │    │    └─EfficientViTBlock: 4-37                                    [1, 1024, 8, 8]           [1, 1024, 8, 8]           --                             --                   --                        --
│    │    │    │    └─SanaMultiscaleLinearAttention: 5-145                  [1, 1024, 8, 8]           [1, 1024, 8, 8]           5,420,032                   1.15%                   --                        16,451,584
│    │    │    │    └─GLUMBConv: 5-146                                      [1, 1024, 8, 8]           [1, 1024, 8, 8]           12,675,072                  2.68%                   --                        811,075,584
│    │    │    └─EfficientViTBlock: 4-38                                    [1, 1024, 8, 8]           [1, 1024, 8, 8]           --                             --                   --                        --
│    │    │    │    └─SanaMultiscaleLinearAttention: 5-147                  [1, 1024, 8, 8]           [1, 1024, 8, 8]           5,420,032                   1.15%                   --                        16,451,584
│    │    │    │    └─GLUMBConv: 5-148                                      [1, 1024, 8, 8]           [1, 1024, 8, 8]           12,675,072                  2.68%                   --                        811,075,584
│    │    │    └─EfficientViTBlock: 4-39                                    [1, 1024, 8, 8]           [1, 1024, 8, 8]           --                             --                   --                        --
│    │    │    │    └─SanaMultiscaleLinearAttention: 5-149                  [1, 1024, 8, 8]           [1, 1024, 8, 8]           5,420,032                   1.15%                   --                        16,451,584
│    │    │    │    └─GLUMBConv: 5-150                                      [1, 1024, 8, 8]           [1, 1024, 8, 8]           12,675,072                  2.68%                   --                        811,075,584
│    │    └─Sequential: 3-7                                                 [1, 1024, 8, 8]           [1, 1024, 16, 16]         --                             --                   --                        --
│    │    │    └─DCUpBlock2d: 4-40                                          [1, 1024, 8, 8]           [1, 1024, 16, 16]         --                             --                   --                        --
│    │    │    │    └─Conv2d: 5-151                                         [1, 1024, 16, 16]         [1, 1024, 16, 16]         9,438,208                   2.00%                   [3, 3]                    2,416,181,248
│    │    │    └─EfficientViTBlock: 4-41                                    [1, 1024, 16, 16]         [1, 1024, 16, 16]         --                             --                   --                        --
│    │    │    │    └─SanaMultiscaleLinearAttention: 5-152                  [1, 1024, 16, 16]         [1, 1024, 16, 16]         5,420,032                   1.15%                   --                        50,071,552
│    │    │    │    └─GLUMBConv: 5-153                                      [1, 1024, 16, 16]         [1, 1024, 16, 16]         12,675,072                  2.68%                   --                        3,244,296,192
│    │    │    └─EfficientViTBlock: 4-42                                    [1, 1024, 16, 16]         [1, 1024, 16, 16]         --                             --                   --                        --
│    │    │    │    └─SanaMultiscaleLinearAttention: 5-154                  [1, 1024, 16, 16]         [1, 1024, 16, 16]         5,420,032                   1.15%                   --                        50,071,552
│    │    │    │    └─GLUMBConv: 5-155                                      [1, 1024, 16, 16]         [1, 1024, 16, 16]         12,675,072                  2.68%                   --                        3,244,296,192
│    │    │    └─EfficientViTBlock: 4-43                                    [1, 1024, 16, 16]         [1, 1024, 16, 16]         --                             --                   --                        --
│    │    │    │    └─SanaMultiscaleLinearAttention: 5-156                  [1, 1024, 16, 16]         [1, 1024, 16, 16]         5,420,032                   1.15%                   --                        50,071,552
│    │    │    │    └─GLUMBConv: 5-157                                      [1, 1024, 16, 16]         [1, 1024, 16, 16]         12,675,072                  2.68%                   --                        3,244,296,192
│    │    └─Sequential: 3-8                                                 [1, 1024, 16, 16]         [1, 512, 32, 32]          --                             --                   --                        --
│    │    │    └─DCUpBlock2d: 4-44                                          [1, 1024, 16, 16]         [1, 512, 32, 32]          --                             --                   --                        --
│    │    │    │    └─Conv2d: 5-158                                         [1, 1024, 32, 32]         [1, 512, 32, 32]          4,719,104                   1.00%                   [3, 3]                    4,832,362,496
│    │    │    └─EfficientViTBlock: 4-45                                    [1, 512, 32, 32]          [1, 512, 32, 32]          --                             --                   --                        --
│    │    │    │    └─SanaMultiscaleLinearAttention: 5-159                  [1, 512, 32, 32]          [1, 512, 32, 32]          1,399,296                   0.30%                   --                        90,964,992
│    │    │    │    └─GLUMBConv: 5-160                                      [1, 512, 32, 32]          [1, 512, 32, 32]          3,191,808                   0.68%                   --                        3,267,363,840
│    │    │    └─EfficientViTBlock: 4-46                                    [1, 512, 32, 32]          [1, 512, 32, 32]          --                             --                   --                        --
│    │    │    │    └─SanaMultiscaleLinearAttention: 5-161                  [1, 512, 32, 32]          [1, 512, 32, 32]          1,399,296                   0.30%                   --                        90,964,992
│    │    │    │    └─GLUMBConv: 5-162                                      [1, 512, 32, 32]          [1, 512, 32, 32]          3,191,808                   0.68%                   --                        3,267,363,840
│    │    │    └─EfficientViTBlock: 4-47                                    [1, 512, 32, 32]          [1, 512, 32, 32]          --                             --                   --                        --
│    │    │    │    └─SanaMultiscaleLinearAttention: 5-163                  [1, 512, 32, 32]          [1, 512, 32, 32]          1,399,296                   0.30%                   --                        90,964,992
│    │    │    │    └─GLUMBConv: 5-164                                      [1, 512, 32, 32]          [1, 512, 32, 32]          3,191,808                   0.68%                   --                        3,267,363,840
│    │    └─Sequential: 3-9                                                 [1, 512, 32, 32]          [1, 512, 64, 64]          --                             --                   --                        --
│    │    │    └─DCUpBlock2d: 4-48                                          [1, 512, 32, 32]          [1, 512, 64, 64]          --                             --                   --                        --
│    │    │    │    └─Conv2d: 5-165                                         [1, 512, 64, 64]          [1, 512, 64, 64]          2,359,808                   0.50%                   [3, 3]                    9,665,773,568
│    │    │    └─ResBlock: 4-49                                             [1, 512, 64, 64]          [1, 512, 64, 64]          --                             --                   --                        --
│    │    │    │    └─Conv2d: 5-166                                         [1, 512, 64, 64]          [1, 512, 64, 64]          2,359,808                   0.50%                   [3, 3]                    9,665,773,568
│    │    │    │    └─SiLU: 5-167                                           [1, 512, 64, 64]          [1, 512, 64, 64]          --                             --                   --                        --
│    │    │    │    └─Conv2d: 5-168                                         [1, 512, 64, 64]          [1, 512, 64, 64]          2,359,296                   0.50%                   [3, 3]                    9,663,676,416
│    │    │    │    └─RMSNorm: 5-169                                        [1, 64, 64, 512]          [1, 64, 64, 512]          1,024                       0.00%                   --                        1,024
│    │    │    └─ResBlock: 4-50                                             [1, 512, 64, 64]          [1, 512, 64, 64]          --                             --                   --                        --
│    │    │    │    └─Conv2d: 5-170                                         [1, 512, 64, 64]          [1, 512, 64, 64]          2,359,808                   0.50%                   [3, 3]                    9,665,773,568
│    │    │    │    └─SiLU: 5-171                                           [1, 512, 64, 64]          [1, 512, 64, 64]          --                             --                   --                        --
│    │    │    │    └─Conv2d: 5-172                                         [1, 512, 64, 64]          [1, 512, 64, 64]          2,359,296                   0.50%                   [3, 3]                    9,663,676,416
│    │    │    │    └─RMSNorm: 5-173                                        [1, 64, 64, 512]          [1, 64, 64, 512]          1,024                       0.00%                   --                        1,024
│    │    │    └─ResBlock: 4-51                                             [1, 512, 64, 64]          [1, 512, 64, 64]          --                             --                   --                        --
│    │    │    │    └─Conv2d: 5-174                                         [1, 512, 64, 64]          [1, 512, 64, 64]          2,359,808                   0.50%                   [3, 3]                    9,665,773,568
│    │    │    │    └─SiLU: 5-175                                           [1, 512, 64, 64]          [1, 512, 64, 64]          --                             --                   --                        --
│    │    │    │    └─Conv2d: 5-176                                         [1, 512, 64, 64]          [1, 512, 64, 64]          2,359,296                   0.50%                   [3, 3]                    9,663,676,416
│    │    │    │    └─RMSNorm: 5-177                                        [1, 64, 64, 512]          [1, 64, 64, 512]          1,024                       0.00%                   --                        1,024
│    │    └─Sequential: 3-10                                                [1, 512, 64, 64]          [1, 256, 128, 128]        --                             --                   --                        --
│    │    │    └─DCUpBlock2d: 4-52                                          [1, 512, 64, 64]          [1, 256, 128, 128]        --                             --                   --                        --
│    │    │    │    └─Conv2d: 5-178                                         [1, 512, 128, 128]        [1, 256, 128, 128]        1,179,904                   0.25%                   [3, 3]                    19,331,547,136
│    │    │    └─ResBlock: 4-53                                             [1, 256, 128, 128]        [1, 256, 128, 128]        --                             --                   --                        --
│    │    │    │    └─Conv2d: 5-179                                         [1, 256, 128, 128]        [1, 256, 128, 128]        590,080                     0.12%                   [3, 3]                    9,667,870,720
│    │    │    │    └─SiLU: 5-180                                           [1, 256, 128, 128]        [1, 256, 128, 128]        --                             --                   --                        --
│    │    │    │    └─Conv2d: 5-181                                         [1, 256, 128, 128]        [1, 256, 128, 128]        589,824                     0.12%                   [3, 3]                    9,663,676,416
│    │    │    │    └─RMSNorm: 5-182                                        [1, 128, 128, 256]        [1, 128, 128, 256]        512                         0.00%                   --                        512
│    │    │    └─ResBlock: 4-54                                             [1, 256, 128, 128]        [1, 256, 128, 128]        --                             --                   --                        --
│    │    │    │    └─Conv2d: 5-183                                         [1, 256, 128, 128]        [1, 256, 128, 128]        590,080                     0.12%                   [3, 3]                    9,667,870,720
│    │    │    │    └─SiLU: 5-184                                           [1, 256, 128, 128]        [1, 256, 128, 128]        --                             --                   --                        --
│    │    │    │    └─Conv2d: 5-185                                         [1, 256, 128, 128]        [1, 256, 128, 128]        589,824                     0.12%                   [3, 3]                    9,663,676,416
│    │    │    │    └─RMSNorm: 5-186                                        [1, 128, 128, 256]        [1, 128, 128, 256]        512                         0.00%                   --                        512
│    │    │    └─ResBlock: 4-55                                             [1, 256, 128, 128]        [1, 256, 128, 128]        --                             --                   --                        --
│    │    │    │    └─Conv2d: 5-187                                         [1, 256, 128, 128]        [1, 256, 128, 128]        590,080                     0.12%                   [3, 3]                    9,667,870,720
│    │    │    │    └─SiLU: 5-188                                           [1, 256, 128, 128]        [1, 256, 128, 128]        --                             --                   --                        --
│    │    │    │    └─Conv2d: 5-189                                         [1, 256, 128, 128]        [1, 256, 128, 128]        589,824                     0.12%                   [3, 3]                    9,663,676,416
│    │    │    │    └─RMSNorm: 5-190                                        [1, 128, 128, 256]        [1, 128, 128, 256]        512                         0.00%                   --                        512
│    │    └─Sequential: 3-11                                                [1, 256, 128, 128]        [1, 128, 256, 256]        --                             --                   --                        --
│    │    │    └─DCUpBlock2d: 4-56                                          [1, 256, 128, 128]        [1, 128, 256, 256]        --                             --                   --                        --
│    │    │    │    └─Conv2d: 5-191                                         [1, 256, 256, 256]        [1, 128, 256, 256]        295,040                     0.06%                   [3, 3]                    19,335,741,440
│    │    │    └─ResBlock: 4-57                                             [1, 128, 256, 256]        [1, 128, 256, 256]        --                             --                   --                        --
│    │    │    │    └─Conv2d: 5-192                                         [1, 128, 256, 256]        [1, 128, 256, 256]        147,584                     0.03%                   [3, 3]                    9,672,065,024
│    │    │    │    └─SiLU: 5-193                                           [1, 128, 256, 256]        [1, 128, 256, 256]        --                             --                   --                        --
│    │    │    │    └─Conv2d: 5-194                                         [1, 128, 256, 256]        [1, 128, 256, 256]        147,456                     0.03%                   [3, 3]                    9,663,676,416
│    │    │    │    └─RMSNorm: 5-195                                        [1, 256, 256, 128]        [1, 256, 256, 128]        256                         0.00%                   --                        256
│    │    │    └─ResBlock: 4-58                                             [1, 128, 256, 256]        [1, 128, 256, 256]        --                             --                   --                        --
│    │    │    │    └─Conv2d: 5-196                                         [1, 128, 256, 256]        [1, 128, 256, 256]        147,584                     0.03%                   [3, 3]                    9,672,065,024
│    │    │    │    └─SiLU: 5-197                                           [1, 128, 256, 256]        [1, 128, 256, 256]        --                             --                   --                        --
│    │    │    │    └─Conv2d: 5-198                                         [1, 128, 256, 256]        [1, 128, 256, 256]        147,456                     0.03%                   [3, 3]                    9,663,676,416
│    │    │    │    └─RMSNorm: 5-199                                        [1, 256, 256, 128]        [1, 256, 256, 128]        256                         0.00%                   --                        256
│    │    │    └─ResBlock: 4-59                                             [1, 128, 256, 256]        [1, 128, 256, 256]        --                             --                   --                        --
│    │    │    │    └─Conv2d: 5-200                                         [1, 128, 256, 256]        [1, 128, 256, 256]        147,584                     0.03%                   [3, 3]                    9,672,065,024
│    │    │    │    └─SiLU: 5-201                                           [1, 128, 256, 256]        [1, 128, 256, 256]        --                             --                   --                        --
│    │    │    │    └─Conv2d: 5-202                                         [1, 128, 256, 256]        [1, 128, 256, 256]        147,456                     0.03%                   [3, 3]                    9,663,676,416
│    │    │    │    └─RMSNorm: 5-203                                        [1, 256, 256, 128]        [1, 256, 256, 128]        256                         0.00%                   --                        256
│    └─RMSNorm: 2-16                                                        [1, 256, 256, 128]        [1, 256, 256, 128]        256                         0.00%                   --                        256
│    └─ReLU: 2-17                                                           [1, 128, 256, 256]        [1, 128, 256, 256]        --                             --                   --                        --
│    └─Conv2d: 2-18                                                         [1, 128, 256, 256]        [1, 3, 256, 256]          3,459                       0.00%                   [3, 3]                    226,689,024
=================================================================================================================================================================================================================================
Total params: 472,577,475
Trainable params: 164,082,371
Non-trainable params: 308,495,104
Total mult-adds (G): 252.72
=================================================================================================================================================================================================================================
…
